test/tst-data/xmc/xtransformer/saved_model/text_encoder/pytorch_model.bin (torch_old, 16473 bytes, 25 tensors)

bert.embeddings.word_embeddings.weight f4 [15, 8]
00000000: a7ed 2a3b 454d 003d 80b2 883c 267c a2bc
00000010: c100 be3c e7ee 87bc 62ed 2dbb 7456 643b
00000020: 5e85 44bc a69a 443a 2776 6b3d e996 983c
00000030: fcb3 aebb 8955 49bc 7633 9b3b e7c2 873c
00000040: d52f d3bc 9002 a4bc 0f09 e23b fb58 c2bc
00000050: bd96 94bb 392f 12bc a37b 7d3c 4dc9 1abd
00000060: eef2 2f3c 799b 42bb 01a7 fd3b 18f8 5fbc
00000070: 0f25 923c b8e2 a33c 36aa 853c 34e4 5cbb
00000080: 25eb fabc 16df 83bb c0c3 d3bb d5dc bcbb
00000090: 8163 2fbd 191a b43c 1df9 41bc abc5 a4bc
000000a0: f0c6 dcbb 0545 ad3c c19d 2a3c f787 253d
000000b0: adc1 93ba 1756 c63c c40b c9bc 1e14 a0bc
000000c0: 47ab f2bc 2b48 373c 0073 173c 0b34 20ba
000000d0: ae98 c33b bd92 9fbb e1fc 363c b4d7 5bbc
000000e0: 6d17 09bd 0faa 533c aa90 e13c 4407 8e3c
000000f0: 0d9b 04bd fca8 fabc b7e2 e0bc 86ba 54bb
00000100: 2957 293c 1cb5 20bd f681 a73c dd9d bebc
00000110: 18b3 d6bb acc6 ce3b d78c 913c d89f b73b
00000120: cfb6 28bd 86e7 813d 1e7c e2ba 7749 843a
00000130: d82a 42bc 5e1b 1a3c 8a68 b2bb 0cc6 583c
00000140: c1d6 8bbb 495e 94bb 64e4 a2bc 6501 adbc
00000150: b510 8c3c 2b86 f63c f329 2fbd 7068 d6bb
00000160: 594c bc3b 2086 d5bc 8c6c 59bd e655 86bc
00000170: c820 8dbc 57c6 203c f7ed 59bc 5535 e6bb
00000180: 8ee6 253c 7e57 eabc 5ccf 4138 1230 1ebd
00000190: fca2 aa3b b8f0 6ebc 40e6 203c 453f 35bc
000001a0: 66ed 5dbc 9800 ee3c bad6 1d3d fef5 8d3c
000001b0: f899 b83c c2dd f1bc 8ea8 dfbb 36ab a8bb
000001c0: 5652 2a3c 46d4 c7bc e614 8f3b 1296 fbba
000001d0: 1027 4d3c ae32 e23b 20d9 f53b 8172 27bc
0.0026081593 0.03132369 0.016686678 -0.01983459 0.023193719 -0.01659341 -0.0026539196 0.003484157
-0.011994688 0.0007499851 0.057485726 0.018626647 -0.0053315144 -0.01228846 0.004736359 0.016572429
-0.025779644 -0.020020753 0.0068980525 -0.02372407 -0.004534571 -0.008922392 0.015471372 -0.03778963
0.010739071 -0.002969472 0.0077408557 -0.01366999 0.017839937 0.020005569 0.016316514 -0.0033705356
-0.030629704 -0.0040243967 -0.006462544 -0.00576363 -0.042819504 0.0219851 -0.011839178 -0.020113787
-0.0067375824 0.021151075 0.010413588 0.04041287 -0.001127293 0.024210973 -0.024541743 -0.019540843
-0.029622687 0.01118664 0.009243727 -0.00061112706 0.0059691286 -0.0048697875 0.0111686895 -0.013418127
-0.033469606 0.012918963 0.027534802 0.017337449 -0.03237443 -0.030598156 -0.027451856 -0.003245981
0.010335722 -0.03923522 0.020447712 -0.023268634 -0.0065521114 0.0063103046 0.017767353 0.0056037717
-0.041189965 0.06342988 -0.0017279421 0.0010092695 -0.011851035 0.009405939 -0.005444591 0.013230812
-0.004267544 -0.004527841 -0.019884296 -0.021118829 0.01709781 0.030093273 -0.042764615 -0.0065432116
0.005746406 -0.026064932 -0.053082034 -0.016398381 -0.017227545 0.009812913 -0.013301364 -0.0070254006
0.010125769 -0.028606173 4.6207904e-05 -0.038620062 0.0052074175 -0.014583759 0.009820521 -0.011062448
-0.01354537 0.029053017 0.038534857 0.017329212 0.022534356 -0.029524688 -0.006825513 -0.005147363
0.010395607 -0.024393212 0.004366505 -0.0019194505 0.01252152 0.006903014 0.00750269 -0.010220171

bert.embeddings.position_embeddings.weight f4 [256, 8]
00000000: 2ea8 3b3c adea 103d 2e2f c03c f2fe cdbb
00000010: d318 b5bc bdc0 8f3c be98 043d a23c 18bd
00000020: 99af a0bb 4ae8 f03c 0e87 acba b774 f6bc
00000030: d145 a0bc b95b 3abd 8491 8c3b 078e a53c
00000040: aeac f93b 759d 0d3d 891f 863d 3bd8 92bb
00000050: c03b 9438 f427 a7bb 11a5 1d3d 1d58 8ebb
00000060: 70f5 5ebc 874a 803c 50ae 3e3d b0e4 1d3d
00000070: 8a21 f8bb 33a5 25ba ae47 953c 64b5 93bc
00000080: 1324 2f3b 744e bb3c f7d2 0f3b 97f9 173c
00000090: ae3b 3c3c ecb9 8bba 755c ba39 1bdb d23c
000000a0: d7aa 943c dbcf cf3c c1e8 313c b4f0 e3bb
000000b0: aa38 ccbc 67a9 003d 7c38 a7bc 85d3 37bd
000000c0: 9c84 873c 18a3 243d 669c 0a3c a1bb 39b9
000000d0: 35c0 043c d0d5 f53c 7e4c 933c 45ca 3fbb
000000e0: 15dd 56bc 7faf 913a 4f4a 3b3b 3e4a 163d
000000f0: 9475 bfbc c920 043c f212 91bc 77ae 5a3b
00000100: a9b3 18bd 2201 233d 9ba3 cf3a 2683 2ebc
00000110: f98c d73c 8d33 823b ca02 c93c 3b60 a6bb
00000120: 6cfe 833c e697 fb3b c04f e93c c23e 98bc
00000130: 563e 223c ab29 d83b 2ba9 253d 8242 e93c
00000140: c519 b3bc 46b6 aebc 4134 ebbb b95d 253d
00000150: bc36 7cbb 1695 093c 947e 03bd f2ba 833b
00000160: 3d0d a9bb da7f 90bc 84b2 11bc adea a5bc
00000170: f2b6 27bb fe55 7cbc 175b 9dbc 1d59 08bc
00000180: 2e14 27bc 4e6d 17bd 1ef7 423c 82b0 463d
00000190: e32c 093c 5316 493c 7b5d a8bc e930 133c
000001a0: 94fa f13b fd82 a5bc 0b7e ce3b 003e c93c
000001b0: 34e9 87bc e1b6 b53b 190e 49bd 460b f4ba
000001c0: 40e0 99bc e2a5 0a3c a1a0 383b a0a4 6dbc
000001d0: 3e07 2dbc bb50 2fbb f8d4 2339 bc45 b0bc
000001e0: 30ac 993b 1995 253c cb37 22bd 3b58 b2bb
000001f0: 8ebc 58bc 55ec b8ba 768b 0e3c 29bc 7cbb
00000200: 0bd9 8cbc 865e bd3a bec6 a63c 5bbe 3b3c
00000210: 8774 65bc fd03 1ebd 1a35 14bd eae5 09bc
00000220: 82b1 963c b384 fc3b 0b02 12bc 652d a13a
00000230: b36c 7d3c 9850 8ebc 4554 29bc 78e4 06bc
00000240: 52e9 5fbc 474b 7e3b 3e5e dc3c 8f87 a43c
00000250: 0012 973a 5952 5a3b 865e 103d a0f5 bbbc
00000260: fe7a 403c bb5b 6a3b 1dc2 d93c 826f 1cbc
00000270: 3d30 d3bb 4e05 3c3c b702 c9bc ca7c 37bc
00000280: 16c2 89bb 3908 59bc 8512 c0bc 2a97 3ebd
00000290: db37 063c 3025 78bc 803d b1bb 297b a5bc
000002a0: b2e8 b93b a221 8e3c 624a ed3b db30 fb3c
000002b0: ceb1 e3bb ae90 a7bc 428d 143c ab46 95bc
000002c0: ddc8 35bd 9701 06bc 5309 5e3c 443f 253c
000002d0: ed23 2d3d 5e44 d13b f31a 353c c22c 0fbc
000002e0: 9319 7dbc 3240 a5bc 6669 40bd 8d8f a9bb
000002f0: 0fd7 84bc 60d2 03bb 10d9 1ebc 8f62 ddbb
00000300: 91a0 1f3c 783e 86bc 386b d8bb fd17 233d
00000310: 985b 283b bc68 df3b d3b3 a93c 3a78 8cbc
00000320: ce14 b8bc 6ad5 c8bb 36d4 26bc 892b 03bc
00000330: 9a44 a33c 4ddd 4a3b 1758 e83b 7073 ddba
00000340: fd3c 133c 8ab2 d5bc e658 b83c 3e41 d3bc
00000350: e276 78ba f444 8e3c 872c 863b dded 923b
00000360: 56b6 13bc 3411 2cbc 408a 333a 7960 99bb
00000370: c1b9 2eba 97a4 443d 6e4a a0bb 589c ddbc
00000380: 6567 793b 029b c0bb a446 db3c 1c33 e6bc
00000390: 013e 77bc a9d1 af3c c932 29bb 4080 203c
000003a0: 34d4 0ebd b79b f03c bd2b 6dbc 6143 323d
000003b0: bcfd f9bc cecf 4fbc 74c4 ec3a fb8f aabc
000003c0: b6f7 9fbc b2f1 a1ba 7764 5bbd cf79 1f3c
000003d0: e1b8 ed3a 91ee 21bd 7d84 a4bc 9fed 8fba
000003e0: 92bf e43c 4229 863c 398c 4e3c 2f6b cebb
000003f0: 0837 a2bb 9221 27bc cad4 b3bc 9e63 e13c
0.011453671 0.035380054 0.023459997 -0.0062864954 -0.022106564 0.01754796 0.03237223 -0.0371672
-0.0049037454 0.029407639 -0.0013162808 -0.03008495 -0.019564541 -0.04549763 0.0042898078 0.020209325
0.007619462 0.03457399 0.065489836 -0.004481343 7.068319e-05 -0.0051011983 0.038487498 -0.004344
-0.013608322 0.015660537 0.046552956 0.03854817 -0.0075723575 -0.0006318867 0.018222656 -0.01803083
0.0026724383 0.022864558 0.0021945813 0.009275815 0.011488838 -0.0010660267 0.0003554557 0.025739243
0.018147869 0.025367668 0.0108587155 -0.0069561843 -0.024929363 0.031411555 -0.020412676 -0.044879455
0.016542725 0.0401946 0.00846014 -0.00017712872 0.008102466 0.03000918 0.01798081 -0.002926485
-0.0131142335 0.0011114924 0.0028578227 0.036691897 -0.023371495 0.008064457 -0.01770923 0.003336815
-0.037280712 0.039796002 0.0015841605 -0.010651385 0.026312338 0.0039734305 0.024537463 -0.0050773895
0.016112529 0.00767802 0.02848041 -0.018584613 0.009902557 0.006596764 0.040444534 0.028474096
-0.021862874 -0.02132715 -0.00717786 0.040372584 -0.0038484773 0.008397361 -0.032103136 0.0040200884
-0.005159049 -0.01763909 -0.008892659 -0.020253504 -0.0025591222 -0.0154013615 -0.019208474 -0.0083220275
-0.010197682 -0.036969475 0.011899738 0.048508175 0.008372518 0.012273389 -0.020552387 0.008983829
0.0073846076 -0.020204062 0.0063016466 0.024565697 -0.016590692 0.0055454825 -0.04908571 -0.0018619082
-0.018783689 0.008462401 0.0028171914 -0.014504582 -0.010560809 -0.0026751 0.00015624228 -0.021517627
0.004689716 0.010106348 -0.03960399 -0.005442647 -0.013228549 -0.0014108518 0.008700242 -0.00385643
-0.017193338 0.0014447726 0.02035844 0.0114589585 -0.014004833 -0.038578022 -0.036183454 -0.008416632
0.01839519 0.0077062487 -0.00891162 0.0012296854 0.01546781 -0.017372414 -0.010335033 -0.008233182
-0.013666468 0.0038802193 0.026900407 0.02008417 0.001152575 0.0033313243 0.035246395 -0.022944272
0.011748074 0.0035760242 0.026581818 -0.00954807 -0.0064449594 0.011475874 -0.024537427 -0.011199186
-0.004204045 -0.013246589 -0.02344633 -0.04653088 0.008192028 -0.015145585 -0.0054089427 -0.020200329
0.0056734914 0.017350022 0.007241533 0.030662945 -0.006948686 -0.02045473 0.009066882 -0.018222174
-0.04438101 -0.00817909 0.013552028 0.0100858845 0.04227059 0.006386324 0.0110537885 -0.008738698
-0.015447992 -0.020172212 -0.046975516 -0.0051745833 -0.01621583 -0.0020114407 -0.009695306 -0.006756134
0.009742872 -0.01638721 -0.0066045783 0.0398178 0.002568936 0.006817905 0.02071563 -0.017147172
-0.022470858 -0.0061289566 -0.010182431 -0.008005985 0.019930173 0.003095466 0.0070905793 -0.0016895365
0.008986709 -0.02608611 0.022503328 -0.025787946 -0.0009478164 0.017366864 0.0040946635 0.004483922
-0.00901564 -0.010502148 0.0006848909 -0.00468069 -0.0006665253 0.048008528 -0.004891685 -0.02705209
0.0038056013 -0.0058778534 0.026767083 -0.028100543 -0.0150904665 0.021462278 -0.0025817624 0.009796202
-0.03487034 0.029371126 -0.01447576 0.04352129 -0.030516498 -0.012683822 0.0018063919 -0.020820608
-0.019527297 -0.0012355356 -0.053562608 0.009733631 0.0018136763 -0.039534155 -0.020082707 -0.0010980851
0.02792338 0.016377095 0.012606674 -0.0062993984 -0.004950408 -0.010200875 -0.021952052 0.027513321

bert.embeddings.token_type_embeddings.weight f4 [2, 8]
00000000: 4fa6 01bd fd66 d23c d732 8cbc ae2d 273c
00000010: fd19 173c d03a 163a 0a2d 7c3c f7f0 afbc
00000020: 0679 d4bc 7be0 b23b 13bd ff3c f9ae db3b
00000030: 3dd7 103d 864b a3bb 6284 79bb 8b3a 07bd
-0.031652745 0.025683874 -0.017114086 0.010203762 0.009222505 0.00057308096 0.0153915975 -0.021477206
-0.025936615 0.005458889 0.031218087 0.006704208 0.035361517 -0.0049833683 -0.003807329 -0.033014815

bert.embeddings.LayerNorm.weight f4 [8]
00000000: 0000 803f 0000 803f 0000 803f 0000 803f
00000010: 0000 803f 0000 803f 0000 803f 0000 803f
1.0 1.0 1.0 1.0 1.0 1.0 1.0 1.0

bert.embeddings.LayerNorm.bias f4 [8]
00000000: 0000 0000 0000 0000 0000 0000 0000 0000
00000010: 0000 0000 0000 0000 0000 0000 0000 0000
0.0 0.0 0.0 0.0 0.0 0.0 0.0 0.0

bert.encoder.layer.0.attention.self.query.weight f4 [8, 8]
00000000: c0f4 cabb 15a5 1e3a db75 0f3c 8116 b6bc
00000010: a29d 81bc 46fd cb3c 10ac c33c 956f 073d
00000020: 26bf b33c 0c20 0d3c 97a0 c53b 4680 68bc
00000030: 5d46 30bb e694 fabc 946d dcbc f919 76bc
00000040: 25e1 cdbc 4f47 663c ca44 c43c 45d5 fabc
00000050: 948d b43c 9465 9a3c e3b5 6dbc a1cc bbba
00000060: f7f3 ca3c 960f 80bc 4ecf 23bd 8f8e ccb9
00000070: e74c ac3b fbf9 8f3a e14a 393d 8470 a83c
00000080: adf0 8d3c 7321 fcbc 8500 523c 9eaf a6bc
00000090: 06e9 31bc f802 b4bb 60c0 dc3c bfa8 9abc
000000a0: 62a3 783c 9605 a73c 142a 003d 2093 0fbc
000000b0: 9f47 843c 226f 823c 7006 f83b 37e2 88bc
000000c0: 50cb 18bb dce6 b8bc 487d 153c 0d2b afbc
000000d0: e5a1 443d 00e7 b03c 6706 cbbb 1109 923a
000000e0: e103 d63c d2b2 afbb dbb5 5ebb 1351 bb3c
000000f0: 1d9f 803b 8c18 07bc 583e 03bc ef5b d53c
-0.0061937273 0.0006051821 0.008756126 -0.022227528 -0.015822235 0.024901044 0.023885757 0.033065397
0.021941733 0.008613598 0.0060311067 -0.014190739 -0.0026897409 -0.030588578 -0.02690772 -0.015020841
-0.025131771 0.014055087 0.023958582 -0.030619273 0.022040166 0.018847264 -0.014508697 -0.0014327952
0.024774535 -0.015632432 -0.039992623 -0.00039016127 0.005258191 0.0010984534 0.045237426 0.020561464
0.017326677 -0.030777669 0.012817507 -0.020347413 -0.01085878 -0.005493518 0.0269472 -0.018879293
0.015175672 0.020388406 0.03129013 -0.008763105 0.016147433 0.015922133 0.007569127 -0.01670943
-0.0023314543 -0.02257102 0.009124108 -0.021382833 0.048005957 0.021594524 -0.0061958316 0.0011141618
0.026124896 -0.005361893 -0.0033982906 0.022865808 0.003925218 -0.0082455985 -0.008010469 0.026044814

bert.encoder.layer.0.attention.self.query.bias f4 [8]
00000000: 0000 0000 0000 0000 0000 0000 0000 0000
00000010: 0000 0000 0000 0000 0000 0000 0000 0000
0.0 0.0 0.0 0.0 0.0 0.0 0.0 0.0

bert.encoder.layer.0.attention.self.key.weight f4 [8, 8]
00000000: 706c 1ebd 17ff ad3c 892c 703b 940f f9bc
00000010: 8b38 70bc bbf5 21bd fd3f 37bc 86c6 1e3c
00000020: a60b b1ba 704d bcbb a779 a03c de26 1a3c
00000030: cae6 ff3b 6782 83bc 1023 e0bc a409 0e3c
00000040: 00d2 493b b5d3 3abc e1c7 553c 1b58 883b
00000050: a287 a6bc 4bda 3e3d 0d0a a8bb 33b6 c53c
00000060: fcb7 71bc 4f53 15bd 38c9 a4bb f632 12b9
00000070: 1efd dcbc ec24 cf3b 0b8b 0a3d 5c2c 333b
00000080: c0d9 573d f6e2 a2bb 78b0 a23c 8633 a93c
00000090: ea25 b13c 2993 58bd 1179 9cbb d7f2 9b3a
000000a0: 8694 353d b69c 103c c52b db3b bb6e 2f3c
000000b0: a516 70bb 6504 0bbb 0885 0b3c 881a 15bc
000000c0: d2bb 2fbc af10 cebc 931c ac3c 9cb7 123b
000000d0: 8d15 863c e140 83bc cf30 ffbb 489f 153d
000000e0: b950 5fbc 8cb8 613b 6b38 30bc ca2d fd3c
000000f0: f205 60bc 7e80 033d 50ab 70bb 7e31 b7bb
-0.038677633 0.0212398 0.0036647639 -0.030402936 -0.014661918 -0.039540987 -0.01118469 0.009690886
-0.00135075 -0.005746536 0.019589258 0.009408681 0.0078094946 -0.016053392 -0.02736047 0.008669291
0.0030795336 -0.011403014 0.013048143 0.0041608936 -0.020328347 0.0465949 -0.0051281513 0.02413473
-0.014753338 -0.036456402 -0.00502887 -0.0001394263 -0.026976164 0.00632154 0.033824008 0.0027339673
0.052697897 -0.0049709035 0.019859537 0.020654451 0.021624524 -0.052874718 -0.0047751744 0.0011897933
0.044331096 0.008826425 0.0066885673 0.010707553 -0.003663459 -0.0021212336 0.008515604 -0.009100564
-0.010725932 -0.02515444 0.021009719 0.0022387272 0.016367698 -0.016022148 -0.007787801 0.036528856
-0.013630086 0.0034442274 -0.010755639 0.030905623 -0.0136732925 0.03210496 -0.0036723204 -0.0055906167

bert.encoder.layer.0.attention.self.key.bias f4 [8]
00000000: 0000 0000 0000 0000 0000 0000 0000 0000
00000010: 0000 0000 0000 0000 0000 0000 0000 0000
0.0 0.0 0.0 0.0 0.0 0.0 0.0 0.0

bert.encoder.layer.0.attention.self.value.weight f4 [8, 8]
00000000: 6ba5 273d b4b2 823c 6ffd 1f3a 9ebb ea3c
00000010: 1d52 13bd 3179 82bc cfe7 3d3c 3b13 4fbc
00000020: 71a9 0fbc 8d2b 90bb d867 c8bb c6b9 5aba
00000030: 1c05 64bb 620b 24ba a29c f43a bd0d ecb9
00000040: 67c2 9dbc e6d0 a83c 38d2 84bc 10fe 1a3c
00000050: f7ae cabc b541 d0b9 7ccc cdbc f3a4 46bc
00000060: 819e b3bb 3236 353d f0d4 e13c 2190 dbbc
00000070: 5795 3b3b f060 18bc 1c9d 0dbc 5b76 60bc
00000080: 171a 69bb 2913 5c3c 2d4f 43bc 1221 9e3c
00000090: a33b f6bc 99bf 3fbd ceb4 083c 7292 9d3c
000000a0: ced1 213c f954 4e3c a0de b93b e1a2 bcbc
000000b0: e28f d7bb 89bd 6dbc cb9e 63bc cf80 043c
000000c0: eb1c 49bc f92d 9e3b 4f0e a63b 0633 903c
000000d0: 4ba7 0c3d efe6 14bd f0d1 8ebc 4fc1 abbc
000000e0: b5f3 f7bc 5c1c deba ecaf 9b3b d03e ed3b
000000f0: ea06 333b 9e36 213c b3c3 463a eab3 ca3c
0.04092924 0.015954353 0.0006103133 0.028653916 -0.03596698 -0.01592693 0.011590912 -0.012638862
-0.008768425 -0.004399723 -0.0061158948 -0.00083437224 -0.0034793084 -0.00062577997 0.0018662403 -0.00045023664
-0.019257737 0.020607423 -0.016213521 0.009459987 -0.024741633 -0.00039721807 -0.02512192 -0.012124288
-0.0054815416 0.044241138 0.027567357 -0.026802124 0.002862295 -0.009300455 -0.008643415 -0.013700093
-0.003556853 0.0134323025 -0.011920732 0.019302879 -0.030057734 -0.04681358 0.008343888 0.01923487
0.0098766815 0.012593501 0.005672291 -0.023026885 -0.0065784315 -0.014510521 -0.01389284 0.008087351
-0.012274961 0.0048272577 0.0050676237 0.017602455 0.03433923 -0.036353048 -0.01743409 -0.0209662
-0.030267576 -0.0016945708 0.004751196 0.007240154 0.0027317354 0.009839682 0.0007582262 0.024743993

bert.encoder.layer.0.attention.self.value.bias f4 [8]
00000000: 0000 0000 0000 0000 0000 0000 0000 0000
00000010: 0000 0000 0000 0000 0000 0000 0000 0000
0.0 0.0 0.0 0.0 0.0 0.0 0.0 0.0

bert.encoder.layer.0.attention.output.dense.weight f4 [8, 8]
00000000: 2b40 aeb9 0b9a 8739 ae5d f3bb 63b1 083d
00000010: c069 b9bb bd47 edb9 79eb fabb 2783 8bba
00000020: 0000 813a 39dd 55bc ed1b 063c 90de 0cbd
00000030: be51 b23b 4e2a 203d 9573 913c 10a7 b13c
00000040: 7e4a ba3c c178 613c 3b56 18bc 9f06 9dbc
00000050: d147 163c 5840 37bc 4148 9e3c ae31 35bc
00000060: d7c2 13bd 62f7 123d 988e cabc 1c03 dd3c
00000070: 6651 323b 17be 033c 2ad8 51bd 501a 103c
00000080: 2c3b 5dbc 43f9 09bd 0084 27bb ac65 573c
00000090: b054 fb3b a27f 003b 8235 723c 3980 19bd
000000a0: 3c03 36bd d54d e7bb 5d36 c63b 94f8 173c
000000b0: 129d c8ba e989 63ba 6a50 233d 9cef bbba
000000c0: 26eb ff3b e3a5 e83c 8e15 a7bc 534d 12ba
000000d0: eb24 bfbb 0033 153c 8ed0 433d 234f 853d
000000e0: 3ee2 c4bc fc0d e13b 8128 ce3c 40b3 14bc
000000f0: 52d0 4c3d 391c 43bd ae8f 80bb d840 c9bc
-0.00033235675 0.00025863977 -0.007426939 0.033372294 -0.0056583583 -0.00045257612 -0.007657465 -0.0010643945
0.0009841919 -0.013053232 0.008185369 -0.03439194 0.0054418733 0.039102845 0.01775531 0.021686107
0.022740599 0.0137617 -0.009297903 -0.019168196 0.009172396 -0.011184774 0.019321563 -0.011059208
-0.036074486 0.035880454 -0.024726197 0.026979022 0.0027209162 0.008040926 -0.05123154 0.008795336
-0.013502877 -0.03368498 -0.0025560856 0.013146799 0.0076700076 0.0019607325 0.014783265 -0.0374758
-0.04443668 -0.007058839 0.006048961 0.009275574 -0.00153056 -0.0008679913 0.03987161 -0.0014338377
0.0078100143 0.028399413 -0.02039602 -0.000558098 -0.0058332584 0.009106398 0.047806315 0.06509235
-0.024033662 0.006868122 0.025165798 -0.00907594 0.050003357 -0.047634337 -0.003923378 -0.024567053

bert.encoder.layer.0.attention.output.dense.bias f4 [8]
00000000: 0000 0000 0000 0000 0000 0000 0000 0000
00000010: 0000 0000 0000 0000 0000 0000 0000 0000
0.0 0.0 0.0 0.0 0.0 0.0 0.0 0.0

bert.encoder.layer.0.attention.output.LayerNorm.weight f4 [8]
00000000: 0000 803f 0000 803f 0000 803f 0000 803f
00000010: 0000 803f 0000 803f 0000 803f 0000 803f
1.0 1.0 1.0 1.0 1.0 1.0 1.0 1.0

bert.encoder.layer.0.attention.output.LayerNorm.bias f4 [8]
00000000: 0000 0000 0000 0000 0000 0000 0000 0000
00000010: 0000 0000 0000 0000 0000 0000 0000 0000
0.0 0.0 0.0 0.0 0.0 0.0 0.0 0.0

bert.encoder.layer.0.intermediate.dense.weight f4 [10, 8]
00000000: cd51 83bc 32fd b8bc 6bb5 8b3a a6a0 393b
00000010: 570f e0bb a9a7 c8bc cce1 053d 550a c3bc
00000020: ed56 49bc e7b8 4abc 241a 083c 8771 643c
00000030: 2b8f c4bb c10f e2bc 0685 df3c 89f4 98bc
00000040: f8e0 4bbb 894b 0cbc ad18 033c 12bc a73c
00000050: 9bf0 da3c d8f5 c7bc e7bd b1bb e2d4 8f3b
00000060: 8bbe 2e3b 400a 083d 6e4a 18bc ebaf 153c
00000070: f888 f23b 5a10 213b 32f8 11bd da6a a1bb
00000080: dd46 20bd 5e61 e6bc ca30 ec3c 134d dbbb
00000090: fdcf 453c e05b a83b 3787 623c 6d4f c0bc
000000a0: 205e c1ba f3af 81bc 93e2 443c 22fa 2b3c
000000b0: 6e54 153c f8c1 78bc 6f6d 6d3b 0443 913c
000000c0: 7704 433c cc03 dd3b 4e8a 96bb b78e e73c
000000d0: 4edc 6a3c 8588 b0bc 39f9 46bc 5d96 dc3a
000000e0: 5e04 a83c 731a 163d 735c 8b3c a27f 05bb
000000f0: cd98 2abc 5047 c13c a49d 9b3c fbcc 98bb
00000100: 89df e03c 6602 223d fe2a ddbb 5c82 bc3b
00000110: 9574 08bc bbd0 7dbc 997a 253b 868d c9bc
00000120: c695 2bbc eec4 48bb 4162 22ba 0903 ee3b
00000130: 8e1a 72bb e682 f6bc 5699 823c 6f36 793c
-0.016030217 -0.02258167 0.0010658925 0.0028324514 -0.006837766 -0.02449401 0.03268604 -0.023808638
-0.012288791 -0.012373186 0.008307014 0.013943083 -0.0059985123 -0.027595403 0.02728511 -0.018671291
-0.0031109434 -0.008562931 0.008001489 0.020475421 0.026726058 -0.02440922 -0.0054242495 0.0043893913
0.0026663865 0.0332129 -0.009295089 0.00913618 0.007401582 0.0024576397 -0.035637088 -0.004926068
-0.03913008 -0.0281226 0.028831858 -0.0066925376 0.012073514 0.0051379055 0.013826183 -0.023475373
-0.0014752783 -0.01583097 0.01201691 0.010496648 0.009114368 -0.0151829645 0.0036228558 0.01773215
0.01190292 0.0067448374 -0.004594124 0.028266294 0.014334751 -0.021549473 -0.01214438 0.001682948
0.020509895 0.036646318 0.017011857 -0.0020370265 -0.010412407 0.023593575 0.018996067 -0.0046631075
0.02745034 0.03955307 -0.00674951 0.0057528447 -0.008328577 -0.01549166 0.0025250076 -0.024603616
-0.0104727205 -0.0030634957 -0.00061944505 0.0072635454 -0.0036942097 -0.030091714 0.015942257 0.015210732

bert.encoder.layer.0.intermediate.dense.bias f4 [10]
00000000: 0000 0000 0000 0000 0000 0000 0000 0000
00000010: 0000 0000 0000 0000 0000 0000 0000 0000
00000020: 0000 0000 0000 0000
0.0 0.0 0.0 0.0 0.0 0.0 0.0 0.0
0.0 0.0

bert.encoder.layer.0.output.dense.weight f4 [8, 10]
00000000: f224 3e3c 8fd1 ca3c c41e 523c 531e e2bc
00000010: 04d0 ab3b a944 0f3a 8a5c b23c e741 18bc
00000020: 97c6 263c 1baf 95bc 8b95 fc3b 4e89 a43c
00000030: 8e5e fdbb 6a39 21bb 6f9f 8abc c16c 5d3c
00000040: 780e 17bd 7b6a 3abc 87bb 2abd f418 823b
00000050: ef9f cbbc ccb2 8cbc 7b04 c5bc b7ea c63c
00000060: a776 88bc 1b15 71ba c301 0f3d e792 17bc
00000070: 4115 9fbb e6a0 f6bb c008 13bd 747f 813b
00000080: e7a7 b1bc 38dc 543c b69c 953c c12b da3c
00000090: 00b7 db3c 3203 953c 2aa6 2ebd 60e5 183c
000000a0: 80ae b0b9 ccde 823c 27a2 b0bb f047 dd3c
000000b0: d9a9 c63c 9c35 0abd 80dd 243c dc2d 29bc
000000c0: 1ba9 59bc 1d27 e5ba e047 a5bb 1e75 4dbc
000000d0: 80d4 1fbc fba1 973c 6b1d 08bc 1b41 f23c
000000e0: 7029 a03b b7cd 653c 7ef7 eabc a5a0 193d
000000f0: 347d 1abd 008f 8d3c b3f4 7b3c 375a d6bc
00000100: 66e4 653c 547e 5ebc 2946 06bc 6acd b6bc
00000110: af1a dabb 04a4 9e3c a90b 04bd 1680 9c3c
00000120: d312 db3c b1a9 9e3c 1023 253c 352e d53c
00000130: a5c3 e43b 8f38 76bc 850e edbc 325b 70bc
0.011605488 0.024758128 0.012824718 -0.02760235 0.0052433033 0.0005465248 0.021772642 -0.009293056
0.010179183 -0.018271973 0.0077082566 0.020085003 -0.007732219 -0.0024600872 -0.016921727 0.0135146985
-0.036879033 -0.011377926 -0.041682746 0.00397026 -0.024856536 -0.0171751 -0.024049988 0.024281843
-0.01665814 -0.00091965654 0.03491379 -0.009251333 -0.0048548286 -0.007526505 -0.035897017 0.003951961
-0.021686507 0.012991957 0.018263202 0.026632192 0.02682066 0.01819 -0.042638935 0.009332031
-0.0003369935 0.015975378 -0.005390424 0.027011842 0.024250912 -0.033742532 0.010062575 -0.010325875
-0.013284947 -0.001748297 -0.0050439686 -0.01254013 -0.009755254 0.018509855 -0.008307795 0.02957206
0.0048877522 0.014026097 -0.028682467 0.03750672 -0.03771706 0.017280102 0.015378165 -0.026166065
0.014031505 -0.013579924 -0.008195438 -0.022314746 -0.006656013 0.019365318 -0.032237682 0.019104045
0.026742375 0.019368025 0.01007916 0.02602301 0.0069813305 -0.015028133 -0.028937588 -0.01467018

bert.encoder.layer.0.output.dense.bias f4 [8]
00000000: 0000 0000 0000 0000 0000 0000 0000 0000
00000010: 0000 0000 0000 0000 0000 0000 0000 0000
0.0 0.0 0.0 0.0 0.0 0.0 0.0 0.0

bert.encoder.layer.0.output.LayerNorm.weight f4 [8]
00000000: 0000 803f 0000 803f 0000 803f 0000 803f
00000010: 0000 803f 0000 803f 0000 803f 0000 803f
1.0 1.0 1.0 1.0 1.0 1.0 1.0 1.0

bert.encoder.layer.0.output.LayerNorm.bias f4 [8]
00000000: 0000 0000 0000 0000 0000 0000 0000 0000
00000010: 0000 0000 0000 0000 0000 0000 0000 0000
0.0 0.0 0.0 0.0 0.0 0.0 0.0 0.0

bert.pooler.dense.weight f4 [8, 8]
00000000: 1307 32bb a609 ae3b 4d97 2a3c 0dfe 993c
00000010: 59f9 ccbb 14c6 54bc bc3a bb3a 87aa f5bc
00000020: a902 e8bb 54b7 4f3c 34a7 d63b 4528 913b
00000030: f2d0 6f3b 043e e73b b4eb fd3b 390c f6b8
00000040: 2651 4cbc b03f ed3b 6e12 f13c 3996 c13b
00000050: b8db 14bd e9cc 7dbc a43e c0bb dc18 d03c
00000060: 51a4 07bc 47b4 dc3c 99b4 65bc 004f d93c
00000070: 7071 c6bc 0f00 b5bc 13f9 483c f071 f63b
00000080: a7eb 16bd 792f e13c bd69 a33c 1713 18bc
00000090: 200c 17bc 5032 2dbd a647 553c 2cd3 793d
000000a0: 47c5 793c bbcb c3bb 4036 20bb 57c7 e73c
000000b0: ea97 3dbc 1031 fdbb 08a7 9c3c b496 40bb
000000c0: 6572 c6ba c057 193c fc47 94ba ca2f 2fbb
000000d0: 8bde 823c 3e57 593d 2a71 c93c 3ba7 a5bb
000000e0: f892 7dbc bbf8 8b3c 70b9 05bd 84b0 443d
000000f0: 877a 46bc 6d29 1c3b 4ff2 d1bb 7b57 babb
-0.002716486 0.005311209 0.0104120495 0.018797899 -0.0062553105 -0.012986679 0.0014284472 -0.02998854
-0.0070803952 0.012677986 0.006550694 0.0044298493 0.0036593047 0.0070569534 0.0077490453 -0.00011732471
-0.012470519 0.007240258 0.029427733 0.0059078005 -0.036342353 -0.015490749 -0.0058668423 0.025402479
-0.008278922 0.026941432 -0.014020109 0.026526928 -0.024224013 -0.022094755 0.012266415 0.0075209066
-0.03684583 0.027488457 0.01994788 -0.009281895 -0.009219199 -0.04228431 0.013017571 0.060992405
0.0152447885 -0.0059752143 -0.0024446398 0.028293295 -0.011571864 -0.007726796 0.019122615 -0.00293867
-0.0015140293 0.0093593 -0.0011312957 -0.0026731365 0.015975257 0.053061716 0.024590094 -0.005055336
-0.015476935 0.017086377 -0.03264755 0.0480199 -0.012114174 0.0023828403 -0.0064070593 -0.005686698

bert.pooler.dense.bias f4 [8]
00000000: 0000 0000 0000 0000 0000 0000 0000 0000
00000010: 0000 0000 0000 0000 0000 0000 0000 0000
0.0 0.0 0.0 0.0 0.0 0.0 0.0 0.0

classifier.weight f4 [2, 8]
00000000: 2ad3 a73c 5912 943c 93ec d23c 50cd bf3b
00000010: 784d 1e3c d7c8 a1bc d33e ce3b 97d1 91ba
00000020: 4713 66bb cfa6 81bc 6e0c 1ebc 34dd 8b3c
00000030: a092 e73c 7d3b 88bb 1953 e4bc cdcd 3e3c
0.020486433 0.018075155 0.025747573 0.0058533326 0.009662025 -0.019749088 0.0062941103 -0.0011125085
-0.0035106705 -0.01582661 -0.009646518 0.017073251 0.028268158 -0.004157482 -0.027871655 0.011645746

classifier.bias f4 [2]
00000000: 0000 0000 0000 0000
0.0 0.0
